Desktop/Coding/Flutter/Project/brisa-supply-chain-flutter-main-2/assets/models/next_month_regressor.tflite (tflite, 11868 bytes, 5 tensors)

arith.constant f4 [1, 32]
000000 23 c8 5a be 40 ec 2a 3d 0c 81 32 be bc b0 32 40
       -0.21365409 0.04172921 -0.1743204 2.792037
000010 b8 73 30 40 67 9f 30 be a0 49 cc be 78 9d 2c 40
       2.757063 -0.17248307 -0.3989992 2.6971111
000020 51 93 2d be 0a 2d 2e bd e2 8a 24 40 6e ca 34 40
       -0.16950728 -0.04252342 2.5709767 2.8248553
000030 58 d4 24 40 13 07 73 be 9d 19 a1 be 6a c5 1b 40
       2.5754604 -0.23733167 -0.31464854 2.4339242
000040 45 e0 26 40 61 fd 72 be f1 a3 6b be 94 22 0d be
       2.6074383 -0.23729469 -0.23011757 -0.13782722
000050 53 67 34 40 66 15 30 40 a7 bc b8 be 36 c3 29 40
       2.8188064 2.751306 -0.3608143 2.6525397
000060 4f 17 8e bd b2 36 a5 bb 5f d7 30 40 87 15 2c 40
       -0.069380395 -0.0050419206 2.7631452 2.688814
000070 32 bd 2a 40 bc a5 25 40 14 0e 1e 40 a8 7a 92 be
       2.6677976 2.5882406 2.4696093 -0.28609204

arith.constant1 f4 [32, 64]
000000 a1 04 44 3c 17 99 db 3c 6e b2 7f be 7a b8 10 3e
       0.011963994 0.026806397 -0.2497041 0.14132872
000010 ae 83 04 3c 4e a2 00 3e 7a 0d 60 be 6a be 94 ba
       0.0080880355 0.12561914 -0.21880141 -0.0011348252
000020 a1 46 61 3e e8 9d 59 be 32 3c 28 bc 24 fa 4c be
       0.21999599 -0.21251643 -0.010268258 -0.20017296
000030 76 08 f4 bc 34 2d d1 3d d3 c5 ba 3c d7 89 c8 bc
       -0.02978919 0.102137 0.022799408 -0.02447979
000040 63 df c6 bd 90 d3 bd bd c8 a8 ed bc 30 ec 19 3d
       -0.097105764 -0.09268868 -0.029011145 0.03757876
000050 a6 29 d6 3c e9 fe 4d 3e 44 a5 fc bd 6f 5d 4c 3e
       0.026142906 0.20116772 -0.123362094 0.19957517
000060 0a a8 b5 3d b9 b5 5b 3e 94 f6 1d 3e ce 3a 36 be
       0.088699415 0.2145604 0.15426093 -0.1779587
000070 4f 3a 32 3e dd 93 99 bd 45 55 0e be 21 cc d8 bd
       0.17405055 -0.07498906 -0.13899715 -0.105858095
000080 d5 84 8f be cd ee ad 3c d2 b1 48 bd c8 87 8d bd
       -0.2803103 0.021232033 -0.048997708 -0.06910664
000090 3c 21 1f be dc 9d 9f 3d 1d 0f 04 be e8 98 a6 3c
       -0.15540022 0.07793781 -0.1289639 0.020336583
0000a0 41 b7 e0 bd 91 04 30 3e ea c2 19 be 19 3c bb bc
       -0.10972453 0.17189242 -0.1501576 -0.022855805
0000b0 8c 92 f8 3d ec 74 54 be 65 0b 9c 3d 78 3c cc bc
       0.121373266 -0.20747727 0.07619361 -0.024931177
0000c0 15 de 4d 3e 3d c5 01 bd 23 50 75 be 58 1b c1 bd
       0.20104249 -0.03168224 -0.23956351 -0.094290435
0000d0 f5 aa d2 3d 89 c5 15 3e 98 1d 68 bd 2b 5c 27 bd
       0.10286514 0.14626135 -0.056668848 -0.040859383
0000e0 8b bd ba bd 9c 79 24 be ce b8 1d 3e 11 70 8d be
       -0.09118184 -0.16062015 0.15402529 -0.27624562
0000f0 e9 08 20 be 1c 11 b8 3c 3f e0 3b 3e e0 8b 30 be
       -0.15628399 0.022469096 0.18347262 -0.17240858
000100 a8 ce 61 be a0 8a d4 bd 98 a3 bb 3d 00 73 7a 3c
       -0.2205149 -0.10378003 0.091620624 0.015286207
000110 24 f4 65 3e 38 74 87 bd 04 69 64 3e 38 4d 28 be
       0.22456414 -0.06613964 0.22305685 -0.16435707
000120 10 d7 69 be e0 e5 fb bd c8 9b 62 be 3c ac 46 3e
       -0.22835946 -0.122997046 -0.22129738 0.1940164
000130 7c 34 0d be 38 e5 24 3e 00 55 70 3c 40 17 6e 3c
       -0.13789552 0.16103065 0.014668703 0.01453191
000140 dc a0 63 3e e0 75 d0 bc b8 5f d8 bd c8 9f 53 be
       0.22229332 -0.025446832 -0.10565132 -0.2066642
000150 60 97 60 be 44 da 09 be 70 c8 41 be 60 f0 18 be
       -0.21932745 -0.13462168 -0.18924117 -0.14935446
000160 f0 ec 05 bd 60 ee 85 bc 48 74 5a be 70 4a 23 be
       -0.032696664 -0.016349018 -0.2133342 -0.15946364
000170 78 8a b7 3d ec 3d 21 be d0 a9 4f be 80 a3 7a bc
       0.08961958 -0.15746278 -0.20279622 -0.0152977705
000180 b8 af e5 bd e8 9a f1 3d d0 bd 33 bd 08 d3 46 3e
       -0.11215156 0.11797124 -0.04388219 0.1941644
000190 40 ef 0b bc 20 be 87 bd 98 61 59 be 00 f1 64 bd
       -0.008540928 -0.0662806 -0.21228635 -0.055893898
0001a0 88 14 b1 3d 10 bd c1 bd 1c 9a 77 be 08 6c 3f 3e
       0.08646494 -0.09459889 -0.24179882 0.18693554
0001b0 9c 4f 7f be 6c 27 4f be e0 e7 b7 3c b0 25 19 3d
       -0.24932712 -0.20229882 0.022449434 0.037389457
0001c0 9c ef 4d 3e f0 c1 c6 bd fc 9e 51 3e 88 2c 91 3d
       0.20110935 -0.097049594 0.20470804 0.07088572
0001d0 d0 19 77 bd a0 67 b6 3c f8 b1 a8 bd 20 93 50 3e
       -0.06032735 0.02226621 -0.0823707 0.20368624
0001e0 60 59 60 be c0 e1 7e 3c 00 7f 8e 3d 40 64 bf 3d
       -0.21909094 0.015556753 0.06957817 0.09345293
0001f0 c0 06 d1 bd 88 34 d1 bd 30 dd 85 3d b0 dc f6 bd
       -0.102063656 -0.10215098 0.06536329 -0.120538116
000200 07 7c 47 3e bc 10 69 be 36 16 09 bb 68 0f 58 3e
       0.19480906 -0.2276029 -0.002091778 0.21099627
000210 42 27 81 be 2e af c3 3d d8 b6 25 3e 10 3f 55 be
       -0.25225264 0.09554897 0.1618303 -0.20824838
000220 3b 20 71 be 20 4a c4 bd 4d fc 61 3e 3c b2 3a 3e
       -0.23547451 -0.09584451 0.22068901 0.18232054
000230 fc 0b 85 be 5e 6b 53 be 61 ef 7e be fe 52 d6 3d
       -0.25985706 -0.20646426 -0.24896003 0.10465048
000240 59 50 b6 3d 61 99 0c be 05 d3 18 bd 09 dc 7d bc
       0.08902044 -0.13730384 -0.03731062 -0.015494355
000250 c0 23 3d be 88 b5 01 3e 05 57 69 be e5 48 48 be
       -0.18470669 0.12666905 -0.22787102 -0.19559057
000260 42 5e 71 3e b2 a1 e0 bd 18 f7 19 bd a5 77 3c be
       0.23571113 -0.10968341 -0.037589163 -0.18405016
000270 91 c1 17 bd 5e c2 39 3e c7 26 86 bc 40 ed 0c 3e
       -0.037049834 0.18140551 -0.016375912 0.13762379
000280 46 0e ab bc 74 72 94 3d 07 3e 8f 3d 54 69 bb bd
       -0.02088083 0.07248393 0.06994253 -0.09150949
000290 fb 38 22 be c2 16 50 be c8 8c 5c be b5 bf 83 be
       -0.15842049 -0.20321181 -0.21538079 -0.25732198
0002a0 07 d2 23 bd 39 ea 64 be 78 21 10 bd 76 7f ae 3c
       -0.03999522 -0.22354974 -0.03518817 0.021301012
0002b0 4c 42 57 3e a3 82 12 3e bf 4b 6d 3e a1 f8 90 bd
       0.21021384 0.14307646 0.23173426 -0.07078672
0002c0 77 18 f9 bd 89 86 0b 3e 6d 90 07 3d 88 cd ab 3d
       -0.121628694 0.1362554 0.03309672 0.08388811
0002d0 c9 b3 30 3e ed dc c7 3d 7d 3f 38 be 54 57 4e be
       0.17256083 0.09758935 -0.17992969 -0.201505
0002e0 01 a0 45 be 6d af 6e be c0 06 ee bc eb 8a 50 bd
       -0.19299318 -0.23309107 -0.029055953 -0.050913732
0002f0 d4 50 4b bc 7a 63 85 be a3 ad 09 3e 53 01 6b be
       -0.012409408 -0.26052457 0.13445143 -0.22949724
000300 71 f0 18 40 d8 3f 93 3f 8d fe 90 3f e5 1b aa 3f
       2.3896754 1.1503859 1.1327683 1.3289763
000310 e4 79 1d 40 ef f8 04 40 b5 80 08 40 2e 8e 03 40
       2.4605646 2.0776937 2.1328557 2.055553
000320 f6 be 04 40 5c df 20 40 4b 14 f8 3f f8 7f a0 3f
       2.0741553 2.5136328 1.9381193 1.2539053
000330 da b9 fb 3f 16 e2 ec 3f 4b d2 27 40 1c 39 a9 3f
       1.9666092 1.8506496 2.6222103 1.3220553
000340 3e 25 03 40 7f 94 0d 40 ba b9 1b 40 21 37 02 40
       2.049148 2.2121885 2.4332108 2.0346148
000350 0a f2 b5 3f 58 78 05 40 c3 07 08 40 d1 f6 0f 40
       1.421449 2.0854702 2.1254737 2.2494395
000360 6f 75 0b 40 b1 83 bb 3f 1d 38 02 40 4a 7a 08 40
       2.1790426 1.4649564 2.034675 2.132464
000370 49 d8 04 40 7b e2 0e 40 19 5f ac 3f 98 c2 b2 3f
       2.075701 2.2325733 1.3466522 1.3965635
000380 84 7c f9 3f 75 44 10 40 49 05 0a 40 db e8 7b 3f
       1.9491124 2.2541783 2.1565726 0.98402184
000390 08 76 f9 3f 51 3a 02 40 22 d5 e2 3f 31 71 cd 3f
       1.9489145 2.0348094 1.7721293 1.6050168
0003a0 bd f9 fe 3f 2c 65 18 40 49 80 39 40 1a 8d fd 3f
       1.9919964 2.381175 2.898455 1.9808686
0003b0 34 33 37 40 05 ab 45 40 65 71 05 40 ab 2a 2a 40
       2.8625002 3.0885632 2.085046 2.6588542
0003c0 c9 d9 21 40 cd 70 0a 40 7b ff 02 40 f2 2d 0a 40
       2.5289176 2.1631348 2.0468433 2.1590543
0003d0 00 de 11 40 9a c6 08 40 8c 12 0c 40 85 0c 22 40
       2.2791748 2.1371217 2.188632 2.5320141
0003e0 c3 70 00 40 35 55 0b 40 c3 17 36 40 d4 66 ef 3f
       2.0068824 2.1770756 2.8452003 1.8703256
0003f0 a4 9a 14 40 68 18 fd 3f e8 ff a4 3f 96 30 0f 40
       2.3219385 1.9773073 1.2890596 2.2373405

arith.constant3 f4 [32]
000000 32 53 1f bd 00 00 00 00 8c 8f d3 bc 12 b5 20 40
       -0.0388977 0.0 -0.025825284 2.5110517
000010 54 5f 25 40 2e fc 29 bd 09 23 a8 bb 28 08 29 40
       2.5839434 -0.041500263 -0.0051311296 2.6411228
000020 9a 10 4e bd cc a0 de bc 76 92 2a 40 39 41 1f 40
       -0.0503088 -0.027176283 2.6651893 2.4883559
000030 e7 6f 2b 40 6a 21 c4 bc 9a 60 19 bd 8a 3c 34 40
       2.678705 -0.023941714 -0.037445642 2.816195
000040 98 15 26 40 db 8c 8f bd 75 8d cf bc 8b ae 44 bd
       2.595068 -0.07009288 -0.025336007 -0.04801802
000050 b1 81 21 40 ee ae 22 40 43 03 93 bc cf 68 26 40
       2.5235407 2.5419269 -0.017945891 2.600147
000060 b9 c1 e3 bc e5 ee 5c bc 3e 80 23 40 db 5a 26 40
       -0.027802335 -0.013484691 2.5547023 2.5992954
000070 2d 51 27 40 88 81 28 40 03 b3 31 40 20 0e 84 bd
       2.6143296 2.632906 2.776551 -0.06448007

sequential_1_1/dense_3_1/BiasAdd/ReadVariableOp f4 [64]
000000 75 06 77 40 54 9a 16 40 ae ce 1c 40 0c e4 10 40
       3.859769 2.3531694 2.4501147 2.2639189
000010 34 53 62 40 19 5e 7b 40 83 26 7c 40 13 32 7e 40
       3.5363283 3.9276183 3.9398506 3.9718063
000020 00 f6 7c 40 35 5a 75 40 12 9c 7d 40 1e e1 17 40
       3.9525146 3.8336308 3.9626508 2.373115
000030 fc 8a 6a 40 bd 70 7c 40 e9 5c 5c 40 66 ed 1a 40
       3.664733 3.944381 3.4431708 2.4207397
000040 c2 d7 5e 40 05 0d 78 40 ca f6 72 40 11 fe 62 40
       3.4819188 3.8757946 3.7963128 3.546757
000050 13 36 17 40 86 a8 7c 40 d3 22 7c 40 c5 8b 73 40
       2.3626754 3.9477859 3.9396255 3.8054059
000060 bf 26 74 40 3e a7 31 40 bc e2 7a 40 a0 61 79 40
       3.8148649 2.7758327 3.9200888 3.8965836
000070 a8 64 7b 40 fb 72 7e 40 1c 09 48 40 6a e1 2c 40
       3.9280186 3.9757679 3.125556 2.7012582
000080 ca c7 7b 40 d8 01 7e 40 78 7d 79 40 a0 bf 17 40
       3.9340692 3.9688625 3.898283 2.3710709
000090 83 12 7d 40 f7 ce 74 40 26 ea 23 40 8e 4b 2b 40
       3.9542549 3.8251321 2.5611663 2.6764865
0000a0 e6 ba 55 40 c8 e5 71 40 bc 99 39 40 6e 0b 74 40
       3.3395324 3.7796497 2.9000082 3.8131976
0000b0 c2 cc 60 40 22 0e 76 40 66 b8 75 40 f0 45 69 40
       3.5124974 3.8446126 3.8393798 3.6448936
0000c0 4e 33 6e 40 f7 39 79 40 28 2b 7f 40 fe f3 81 40
       3.7218814 3.894163 3.987009 4.061034
0000d0 4e fa 7d 40 c3 da 72 40 cd 7f 7f 40 ee 51 67 40
       3.9684024 3.7946022 3.9921753 3.6143756
0000e0 59 d9 75 40 c9 33 7e 40 47 67 5f 40 2c 34 6a 40
       3.8413908 3.9719107 3.4906785 3.6594343
0000f0 01 2c 7c 40 ab 08 6c 40 7c f6 37 40 2e 98 7a 40
       3.9401858 3.688029 2.8744192 3.9155383

sequential_1_1/dense_3_1/MatMul f4 [64, 5]
000000 85 da 86 3f 2f b0 ab 3f 3d 6a 96 be ef 9c 8e be
       1.0535437 1.3413142 -0.29377928 -0.27854106
000010 a7 f9 fd be 95 af a8 bf d0 af 9c bf 99 fc da 3e
       -0.49604532 -1.3178583 -1.2241154 0.42770842
000020 ea fd a5 3e 72 bc 5d 3f 94 4a 9e bf 1b 80 af bf
       0.32420284 0.8661567 -1.236651 -1.371097
000030 b2 40 d9 bc 67 9e 32 3f 25 2c 68 3f e7 34 a7 bf
       -0.026520107 0.6977295 0.9069236 -1.306302
000040 b3 c6 ae bf cf 8d 26 3f b4 0b ae 3e 63 37 1e 3f
       -1.3654388 0.6506013 0.33993304 0.61803263
000050 cc 51 8e 3f d1 82 60 3f d7 b3 45 bf 43 a5 89 bf
       1.1118712 0.8769961 -0.7722754 -1.0753559
000060 96 3d 45 bf b3 b0 a5 3f b9 15 94 3f c3 73 d9 3c
       -0.770471 1.2944549 1.1569129 0.026544457
000070 11 fd 0a bf ea a5 87 3e a7 3f b6 3f c7 12 a7 3f
       -0.542924 0.2649377 1.4238175 1.3052605
000080 6c e5 3e be ab 86 c0 be 96 4d b8 3e c4 77 b9 3f
       -0.18642205 -0.37602744 0.35996693 1.4489675
000090 5d 38 a9 3f d9 25 de bd 57 26 7f 3c 10 c0 95 be
       1.3220326 -0.108470626 0.015573106 -0.29248095
0000a0 f8 20 a1 3f 53 27 98 3f 1a cb 5f 3e f2 f5 a6 be
       1.2588186 1.1887001 0.21854821 -0.32609516
0000b0 29 b4 89 3e 52 c3 82 3f 45 f6 aa 3f 61 12 82 be
       0.26895264 1.0215857 1.3356405 -0.25404647
0000c0 e5 c8 4d bf f3 65 7d 3c bd 58 bb 3f ec 82 65 3f
       -0.80384666 0.015466201 1.4636456 0.89652896
0000d0 27 c6 5b 3e 9c 2e e8 be bd ac 16 be 7a 46 a1 bf
       0.21462308 -0.4534806 -0.14714332 -1.2599633
0000e0 b8 84 b5 bf 66 37 b4 3e 13 a1 0e 3f fe 5f 18 3f
       -1.4181128 0.35198516 0.5571453 0.5952147
0000f0 50 b0 da be 09 d2 6c be a6 f3 d6 be b8 ce 1d 3f
       -0.4271264 -0.23126997 -0.41982764 0.6164355
000100 9b 9e 76 3c 7a 7e ba 3f 65 62 98 3f c1 fb 93 3e
       0.015052463 1.4569848 1.1905028 0.2890301
000110 7a 18 e8 bd 72 6b c2 3d 77 54 97 3f c3 44 2c 3f
       -0.113327935 0.0949315 1.1822652 0.6729242
000120 c2 9e 09 bf 51 1a 4d 3f c6 a3 ad 3e 2e fe 9f bf
       -0.5375787 0.8011828 0.33914012 -1.2499444
000130 ee f4 aa bf ad 3a 31 3e bd 01 0e 3f 1d 3d 54 3f
       -1.3355997 0.1730754 0.554714 0.8290575
000140 79 7c a7 be 21 ac 54 bf 8b bf 59 be 9b 1e 3c 3f
       -0.32712153 -0.8307515 -0.21264474 0.734842
000150 3c 81 31 bf a2 17 d0 3f 2e 64 ab 3f ca 28 0b be
       -0.6933782 1.6257212 1.3389947 -0.13589779
000160 be 84 45 3e 68 b2 33 3e 3a 5f 83 3f b4 cc 96 3f
       0.19288918 0.17548525 1.0263436 1.178122
000170 ef 1f b8 be fc 15 39 bf 7f cd d1 be 16 0a 28 bf
       -0.35961863 -0.7229917 -0.40977094 -0.6564039
000180 41 e1 4d bf c4 54 ce bc 9b ab cc 3e b8 14 1a bf
       -0.80421835 -0.025186904 0.39974675 -0.60187864
000190 22 03 a2 bf ef bb 97 bf 93 36 81 3e d1 90 d4 3e
       -1.2657206 -1.1854228 0.2523695 0.41516736
0001a0 19 2d 59 3f 51 80 bb 3f 93 42 b3 3f de 8f ee bd
       0.8483444 1.4648534 1.4004692 -0.11648534
0001b0 51 9c 09 3d ae 54 2d be b6 21 9b 3f b0 ad 79 3f
       0.03359634 -0.16926834 1.2119663 0.9753065
0001c0 a9 14 c1 3e b3 89 14 bf 2d 7b 06 3d f4 95 00 bf
       0.37711075 -0.5802261 0.032832313 -0.5022881
0001d0 70 55 9d be 22 b2 dc be 23 b4 16 3f 93 4d 31 bf
       -0.30729246 -0.43104655 0.58868617 -0.69258994
0001e0 2b 9d be 3f cc 2e 98 3f 3d e5 10 3e 45 a8 1f 3f
       1.4891714 1.1889281 0.14149947 0.62366134
0001f0 0a fc 20 3f ed 40 94 bf ca 4b 86 bf f7 7d 62 be
       0.6288458 -1.1582314 -1.0491879 -0.22118364
000200 20 23 82 3f 9f be 11 bf fc e2 71 3f 6a 3b 96 3f
       1.0166969 -0.5693149 0.94486976 1.1736882
000210 55 1d a4 3e 9e d5 70 be 3a 6e 1d 3f f5 dc b9 3f
       0.3205363 -0.23518988 0.6149632 1.4520556
000220 ca b5 aa 3f d4 fe a5 be 74 68 96 be a2 d5 cf 3e
       1.3336728 -0.3242098 -0.29376566 0.40592676
000230 56 cb 9a 3f fa 9c b0 3f 0b 84 1a 3e 31 fb 5a 3e
       1.2093303 1.3797905 0.15089433 0.21384884
000240 5f d0 f0 3d 62 e3 b2 3f bb 2a a1 3f f9 9e 85 3e
       0.11758494 1.3975642 1.2591165 0.2609785
000250 1d 51 50 3d b0 02 3f 3e 2e 67 19 bf 3e 58 27 bf
       0.050858606 0.18653369 -0.59923065 -0.6536902
000260 08 7f 28 3e 00 91 35 3f 38 bc e9 bd 00 47 96 bf
       0.16454709 0.7092438 -0.11412853 -1.1740417
000270 09 32 b0 bf ea df d2 3e af ac 44 3f 73 c7 25 bf
       -1.376527 0.41186458 0.76825994 -0.6475746
000280 54 15 bc 3f b8 16 ba 3f 7f 59 7b 3e fe f3 a2 bd
       1.4694009 1.4538183 0.24545859 -0.07956694
000290 07 24 fb 3e b8 db a8 3f f0 99 b0 3f de 95 a8 bc
       0.49050924 1.3192053 1.3796978 -0.020579275
0002a0 7f 0c 71 be 0c ac 77 be 7b 2f 8f 3f b5 fd aa 3f
       -0.23539923 -0.24186724 1.1186365 1.3358675
0002b0 a5 65 61 3e f6 c8 ec 3d fe 19 4d 3e 0c a7 b5 bf
       0.2201143 0.11561768 0.20029446 -1.4191604
0002c0 40 e2 98 bf a1 6d 1a 3e 6a 5d 1c 3f d7 b1 59 3f
       -1.1944046 0.15080883 0.6108004 0.8503699
0002d0 5f b7 a7 3f b1 aa 81 3f a8 2f ad 3e 0e 10 cb 3e
       1.3102835 1.0130216 0.3382542 0.39660686
0002e0 f8 52 ae bd 19 07 78 3f d0 ff a5 3f c6 33 0a 3e
       -0.08511919 0.9688583 1.2968693 0.13496312
0002f0 f8 3e 45 3e fb ce 90 3e 25 1b aa bf 07 f6 ae bf
       0.19262302 0.28282914 -1.3289534 -1.3668832
000300 14 fd 18 3f df 5b 43 3f c1 7d 24 bf a1 8d 9d bf
       0.59761167 0.7631206 -0.64254385 -1.2308847
000310 0c e5 9f bf b3 d3 5e 3e 26 6e 69 3f 91 84 15 bf
       -1.2491775 0.21760444 0.911837 -0.58405405
000320 1e 29 7d bf d7 94 74 bf 01 84 5f 3e 2f 77 42 3e
       -0.98890865 -0.9553961 0.21827699 0.18990777
000330 1f db ab be fe 96 88 3f 37 f3 91 3f 85 98 e3 be
       -0.33565614 1.0671079 1.1402348 -0.444523
000340 f3 c0 50 bf 4c 2d 1f bf 9d 63 e0 3f e1 53 c7 3f
       -0.8154442 -0.6217849 1.75304 1.5572473
000350 96 e4 3c bf 3e 68 a3 3f 96 21 cc 3e 80 17 99 be
       -0.73786294 1.2766187 0.39869374 -0.29900742
000360 83 1e 1c bf 99 ee c5 be 02 79 f8 3e 52 53 28 bf
       -0.6098406 -0.38658598 0.48529822 -0.65752137
000370 3c b5 16 3f c1 c3 34 3f 1b 37 5f bf 4e 4c 72 bf
       0.5887029 0.70611197 -0.8719346 -0.9464768
000380 49 a3 75 bf 37 14 1e 3f 54 db c4 3c ea bd 96 bf
       -0.9595228 0.61749595 0.024030365 -1.1776707
000390 b9 a6 0f 3f 95 89 ca be 6d 4b 4a be 26 42 ef 3d
       0.56113774 -0.39558092 -0.19755335 0.11682539
0003a0 fb bd 7c bf 60 19 1f 3f d7 81 d5 3d ca ab 84 3f
       -0.9872739 0.62148094 0.104251556 1.0364926
0003b0 81 1e 45 3f f5 7f db 3d 1a 1d 8d be bb f4 a0 3e
       0.7699967 0.10717765 -0.27561265 0.31436715
0003c0 c6 ed c5 3f f5 cb aa 3f b0 cc cb be 71 bc 2b 3e
       1.5463188 1.3343493 -0.39804602 0.16771103
0003d0 7b 30 65 3e fa 44 d0 3f c9 cb 9a 3f 2c 01 d4 3d
       0.22381775 1.627105 1.209344 0.10351786
0003e0 bb ee 9b 3e da 37 97 3e a9 b4 b1 3f f3 60 82 3f
       0.30455574 0.295348 1.3883258 1.0185837
0003f0 24 ea 56 3e 42 7d f4 be 49 84 0e bc 8a 64 b6 3f
       0.20987755 -0.47751814 -0.008698531 1.4249432
